Selectors/FMMS/models/FMMSadam_cos_4_8_50_0.005_0.pt (torch, 97607 bytes, 3 tensors)

weight f4 [4, 200, 24]
00000000: 40cf 733f cd99 26bc 2d11 ef3d 88fa 083f
00000010: 2436 e13e 5c4f c33d 92fc 6d3f 7d91 273f
00000020: fc5a 723f 403f 373e bd5a 383f 31ba 133f
00000030: a66f 20bd 62da 423c 004a 9b3f a1ed 6f3e
00000040: dcaf 2dbd 146c f63e 43b9 b13e 5827 083f
00000050: a7df dfbd c3c5 083f 7ebf af3e 6720 903d
00000060: d906 08bd 1c95 713f b141 803f 5b0e 5f3f
00000070: 5d14 393f 159f ba3e cc87 633e 663a 503e
00000080: fd8a f93e 27e4 863f df94 863f e919 093f
00000090: 1eae ec3d 2407 8e3e 598e 3d3e 5683 733e
000000a0: 25b5 123f 549e 1e3f 49d3 c33d 40d3 023f
000000b0: 17fe 033f 0263 03be cb20 1b3f 0405 2c3f
000000c0: 3607 a43d a044 333e 1492 743f d966 b03e
000000d0: e630 7f3e 9460 ad3e b5c2 e73e 3f80 3ebd
000000e0: 7c2e 683e 3eb0 b23e eef6 0f3e 96a1 423f
000000f0: 3e08 e2bd 889d 913e 4948 7f3f af2f 093f
00000100: e4a2 5c3f fda2 473e 2254 563e 87c0 553e
00000110: f02e 803e 67c0 773e 6913 583f 79fd a83e
00000120: 0100 2b3f 86c0 883f 7510 043f c899 2e3e
00000130: 0ac1 083f 9d3a 1d3f b973 483f 4f24 6e3e
00000140: 8685 293f 5aa3 eabd f1d3 003f 2018 81be
00000150: e954 1b3f a5a8 803f 6937 843f 4a5d 223f
00000160: 5d30 fb3e 13fe 943e 5771 d93e 50c1 b63e
00000170: fe52 3c3f fbce 703f d4b4 1e3f 5a34 2b3f
00000180: b533 953e ae50 1abd 0037 1c3f 153f ce3e
00000190: 8a9c aabc 8182 3e3f 5edc 493d fdad 873f
000001a0: 86ba cf3e da25 b43e af26 b63e 0d75 5e3f
000001b0: e4f0 d13e 3192 e83e 6727 393e f365 2d3f
000001c0: 8408 1e3e b0d6 46be e2c6 bb3c 0506 afbd
000001d0: ab03 d13e a2b8 343f d996 823e 2aec b53e
000001e0: 100c 163d 1e05 513f d238 fc3e 3271 df3e
000001f0: 5dd2 263f f40f 203e 4550 0f3f c2ab 763f
00000200: 1974 0d3f 3c66 723e 703b 103d 5892 513e
00000210: a326 7f3f 7961 2b3f 9e25 ab3e 6878 273f
00000220: ac59 093f 39b3 743f 0079 e13e bcd4 073f
00000230: f05f f03d 7b7f 003f c0b6 023d 7067 1b3d
00000240: 120e 57be 25e4 5b3e 2f54 473f 7e77 003f
00000250: 32ab 353f a155 163f 21ff 23bd 3805 db3e
00000260: c8c3 833f 0eb3 683f 2b5a 193f 0c96 093d
00000270: 3715 853f 5f99 093f 29cc 0a3f 7050 963e
00000280: 8c4a ad3e 3bd4 6d3e 8959 8f3e 65f3 78be
00000290: 7569 a33e c833 e63e b89b 263f 0c3a 06be
000002a0: e7fb ff3e 91a6 483f 64b4 df3c eb0c 6b3f
000002b0: 925d 0e3f a2fb 613f bba4 0c3f 4fe3 183f
000002c0: 06de bdbc 4e67 d13e 822a e23d 034c 0d3f
000002d0: 5a6a 703f 12ff 403e 4229 78bd d74d 1d3f
000002e0: b483 4b3f 893c 0b3f 3113 97bd e70b 403d
000002f0: 97ad 003f 4be6 0cbe d593 323f 5330 3b3e
00000300: 56c5 8c3e 0373 ca3d 5ca5 4bbc cd53 253f
00000310: cfd8 3a3f 912b b83e 47c1 293f cce2 c73e
00000320: 6cc0 ce3e 0bcc e83a fcde 7b3f 07e4 293f
00000330: e8b5 8ebd 8e32 5f3e 45ff 5e3f a4f0 b53c
00000340: 0ec5 533e a4a0 3b3f f572 cd3e f7cd 5d3f
00000350: 03c3 fa3e 2145 e03e 4401 d13e 0ae2 ce3e
00000360: d49c 333e 6d45 8a3f 4eb6 893f d5b5 f9bd
00000370: 4d85 313f 7a20 41bd a0c5 0b3f 21ba e23e
00000380: 1ffc a73e 2e25 453f aca0 0d3f c73e 303e
00000390: 0936 163d 685f 233f 769e 833f 2a65 8e3f
000003a0: da83 233f 8afd 8d3f 259b 1f3e 7339 873e
000003b0: 6b5a 103f 7d98 a33e 9c7a ba3e 94b8 2e3e
000003c0: 6efa 19be 4d04 a03e eaaa 203f 24bd 193f
000003d0: 3fcc 663f 97f7 693f f4fe 373f a35f 073f
000003e0: b55e 9a3e 4915 97bc 5a74 5f3e fdd8 c63d
000003f0: 8574 db3d efb1 3c3f 7fb0 3e3f 2f8f 823f
0.95238113 -0.010168505 0.11673198 0.5350728 0.4398662 0.09536621 0.92963517 0.6545637
0.9467008 0.17895222 0.72013456 0.5770598 -0.039168976 0.011892887 1.2131958 0.23430492
-0.04240404 0.48129332 0.34711656 0.53185034 -0.1093133 0.5342676 0.34325784 0.0703743
-0.033209655 0.9436815 1.0020047 0.8713128 0.72296697 0.36449495 0.22219771 0.20334777
0.48738852 1.0538377 1.0514182 0.5355516 0.11556648 0.27739823 0.18511333 0.2378057
0.57307655 0.6196034 0.09561784 0.5110359 0.51559585 -0.12830737 0.60596913 0.67195153
0.08009188 0.17506647 0.955354 0.34453467 0.24920997 0.33862746 0.45265737 -0.046509024
0.22673982 0.34900087 0.1405904 0.7602781 -0.11036728 0.284405 0.99719673 0.53588384
0.8618605 0.19495769 0.20930532 0.20874225 0.2503581 0.2419449 0.8440462 0.33005884
0.6679688 1.0683753 0.5158761 0.1705085 0.53419554 0.6141756 0.7830158 0.23256038
0.66219366 -0.11456938 0.50323397 -0.25213718 0.6067644 1.0051466 1.032941 0.634236
0.49060336 0.29100093 0.42469284 0.3569436 0.73564136 0.9406583 0.6199467 0.6687676
0.29141012 -0.0376746 0.61021423 0.40282503 -0.020826597 0.74417883 0.049282424 1.0599972
0.40571994 0.35185128 0.35576388 0.86897355 0.41004097 0.45424035 0.18081437 0.6773369
0.15432936 -0.19417834 0.022921983 -0.0854607 0.4082311 0.7059423 0.25505713 0.3553174
0.036632597 0.81648433 0.492621 0.4364105 0.6516474 0.15631086 0.55981857 0.9635583
0.55255276 0.23671812 0.035212934 0.20465982 0.9966833 0.66945606 0.33427137 0.654181
0.53652453 0.9558597 0.44037628 0.5305898 0.117370486 0.5019452 0.031912565 0.037940443
-0.21001461 0.21473749 0.7786283 0.5018233 0.7096435 0.5872441 -0.04003823 0.4277742
1.0294123 0.90898216 0.5990321 0.03359036 1.0397099 0.5374965 0.54217774 0.29358244
0.33845937 0.23225491 0.27997997 -0.24311598 0.31916395 0.4496138 0.6508136 -0.1310808
0.49996874 0.7837916 0.027307697 0.91816586 0.55611527 0.88274586 0.5493886 0.59721845
-0.023177158 0.40899128 0.11043264 0.5519411 0.9391228 0.18847302 -0.06058622 0.614469
0.7949784 0.54389244 -0.07376707 0.04688635 0.5026488 -0.13759725 0.69756824 0.18280153
0.27494305 0.09885218 -0.0124295615 0.64580995 0.72987074 0.3597074 0.6631054 0.3904022
0.4038118 0.0017761005 0.9838712 0.6636357 -0.069682896 0.21796629 0.8710826 0.022209473
0.20680639 0.73291993 0.40126768 0.866424 0.48976907 0.4380274 0.40821278 0.4040683
0.17540294 1.0802437 1.075876 -0.12192885 0.69344026 -0.047150113 0.54598427 0.4428263
0.3280954 0.77009857 0.5532329 0.17211448 0.036672626 0.63817453 1.0282733 1.1124623
0.63873065 1.1092999 0.15586527 0.26411018 0.56387967 0.31952277 0.3642167 0.17062598
-0.15036938 0.3125328 0.62760794 0.6005423 0.90155405 0.9139342 0.718734 0.52880305
0.3015038 -0.018442767 0.21821728 0.09709356 0.10715584 0.73709005 0.7448806 1.0199946

linear.0.weight f4 [24, 200]
00000000: a8a3 643e 5c18 cbbe b656 3abe ffb4 3c3e
00000010: 69b4 10bf 673b e6bc 0031 e7be ba11 07bf
00000020: 89d0 a13b f229 c7be 2232 9abe e1ba d4be
00000030: ce67 c7be 4c47 31be 2b5d 113e 636b fbbe
00000040: 266d 7bbe 90e8 793e dd92 f0be 127d e2be
00000050: 49cb 9dbe d6e4 fdbd 062c 9abd 71f2 43be
00000060: 3fde 743e f022 3a3b 6212 91bc 5720 903b
00000070: 8113 ecbd 1440 f0bb c2f4 923e c24e bf3e
00000080: 7fd9 8b3e 7b83 943c fd50 a2be b9b2 96bc
00000090: 1b42 833d c2da 073d 9fd0 84bd 91c7 a8bc
000000a0: 6dd5 74bd 0309 c63b 1c9f 18bd 6148 87bd
000000b0: 0f88 f83c 82d1 6cbd cb07 8dbd 8460 7ebd
000000c0: 5bbb c9be a127 e9be f426 dbbe 2717 46be
000000d0: 0bcb b2be 0327 b43e dd18 f6be 5bbf cebe
000000e0: 8bba ebbe e010 c7be 0176 d3be 188a 8e3e
000000f0: 7841 fabe 415a b3be 9888 cebe 86c4 2e3e
00000100: 9364 42be 1e60 a03e f801 fbbe 81a1 d9be
00000110: 4c3e c4be d070 9bbe d87a 9ebe a517 aa3e
00000120: bc9b 18bf c264 c1be 9e86 eabe 34b4 c53e
00000130: 9f6d 2d3e df21 b23e fc44 d3be 8d7f bcbe
00000140: 918b d5be b6a5 303e 0714 943e 0e51 a53e
00000150: f501 9fbd d5de 37bd 734a 5cbe ecfd 253e
00000160: a76a 9fbe d91b bcbe 4b14 be3d 9414 9fbd
00000170: 7232 eb3c 6d90 07bf baf7 debe 9a59 fcbd
00000180: 6d66 973e 7416 823d e567 1dbc f5b0 b4be
00000190: f2cd acbe cc9a debe f0e0 a83e 09b2 c83d
000001a0: 475c 763e 1702 9dbe 8826 c9be 5914 adbe
000001b0: 6259 843e cafc 383e 1d4d 893e 4513 3ebe
000001c0: f3f9 cdbe e2bd 79bd 934d 8b3e 3c6e d03e
000001d0: cc16 8c3e 02de d2be 635f 22be 54ba e4be
000001e0: 572a f8be 8bf7 05bf be96 873e 504c 883e
000001f0: 2a76 b23e 5495 953e a750 a7be ae09 03bf
00000200: 50af c13e 97cb fbbe 8a24 e7be 78bf a1be
00000210: b662 80bd 7d86 90bd 413d eabe c1a6 dabe
00000220: 6a94 9ebe a975 01bf cb6c 273c 73ce c8be
00000230: fc30 323e 3f35 a63e 63d3 a53e 8c5f 8c3e
00000240: c6b0 b7be 6e8b 7bbe 6b55 2e3e d2ea 9cbc
00000250: 281a 2b3e 2781 d4be d5ea c2be 039d 453e
00000260: e446 e3be 7a8d fdbe 2dcf c2be 391e 8839
00000270: 4c2d fabe 9c66 50bd e83f 82be 3afc b1be
00000280: 0d4d 83be 02bd 823d 96b5 cabe 3580 2ebd
00000290: 0ec5 b2be 1e2d b9be 5cb2 c7be ad8c 92be
000002a0: 92e6 e4be 3134 4a3e aabf e0be 5ffb afbe
000002b0: 9578 2d3e b163 e0bd 7024 073e 425b 283d
000002c0: e2b2 17be 7334 b0be 67cd 9f3d 537b e3be
000002d0: 1e8f d9be b67d bebe 4e42 f7be aef9 cbbe
000002e0: acc3 dabe 516f f8be 6c21 bfbe 54c0 21be
000002f0: 28bf d4be 001c 00bf b4f8 e0be 5a0e febe
00000300: acfc 243e 8b40 043e 44f0 d8be 5d5b f2be
00000310: cde9 dfbe 1b85 d1be 36a5 293e 42e4 97be
00000320: dc81 d9bd 94f1 c6bc 5998 d0ba 3998 8a3d
00000330: 1a87 09be 0966 04bd c950 1b3e 13f5 26be
00000340: bd7b a23d 7be6 bf3d 0140 163e 44a7 643e
00000350: eebc 3f3e c526 64bc 60f4 033e 12b7 2a3d
00000360: e0c1 a9be c448 2a3e b518 45be 261f 113e
00000370: 29c4 a2be d886 ba3d 3770 303e f378 8d3d
00000380: f66c 99be 7b50 153d 841d 883d 3bf1 85bd
00000390: 32e4 86be 7c38 273d 20ed 2cbd dcd2 4abe
000003a0: b23e 26be 7514 9abe 3d1e 87be fb9f 1a3d
000003b0: 99c5 723c 6428 323b f156 893c 0604 573b
000003c0: 6edf 2bbd 8272 023d bbef 68ba 4582 833d
000003d0: 152f 03bc 16fc a83c a3b8 29bd be61 9dbd
000003e0: 31c6 9fbe c43d 9fbe c7f8 89be 1fe1 27be
000003f0: 7c21 b3be 448c 58be 2b35 3bbe c247 67be
0.22328055 -0.39667022 -0.1819714 0.1842842 -0.56525284 -0.028104497 -0.45154572 -0.52761424
0.0049381894 -0.3889919 -0.30116373 -0.41548827 -0.38946384 -0.17312354 0.14195697 -0.49105367
-0.24553356 0.24405122 -0.46987048 -0.44236046 -0.30819157 -0.123971626 -0.07527928 -0.19135453
0.23912905 0.0028402172 -0.01770896 0.0043983865 -0.115271576 -0.0073318575 0.2870236 0.37364775
0.27314374 0.018129101 -0.31702414 -0.018395768 0.06409093 0.033167608 -0.06485104 -0.020602973
-0.05977385 0.0060435547 -0.037261114 -0.06605602 0.030338315 -0.05781699 -0.06886252 -0.062103763
-0.39400753 -0.45538047 -0.42803156 -0.1934477 -0.34920534 0.35186014 -0.48065844 -0.40380368
-0.46040758 -0.38880062 -0.41300967 0.27839732 -0.48878074 -0.35029796 -0.40338588 0.17067155
-0.18983679 0.31323332 -0.4902494 -0.4250603 -0.3832878 -0.30359507 -0.30953097 0.33221164
-0.5961263 -0.37772185 -0.4580583 0.38614047 0.16936348 0.34791467 -0.41263568 -0.36816064
-0.41708043 0.17250714 0.2892153 0.32288402 -0.07764045 -0.044890244 -0.21512775 0.16210145
-0.31136057 -0.36739996 0.09281214 -0.07767597 0.028710578 -0.5295475 -0.43548375 -0.12321778
0.29570332 0.06351939 -0.00960729 -0.35291258 -0.33750874 -0.43477476 0.32984114 0.097995825
0.24058639 -0.30665657 -0.3928721 -0.33804587 0.25849444 0.18065181 0.26816645 -0.18562038
-0.4022976 -0.060972102 0.27207622 0.40709102 0.27361143 -0.41185004 -0.158567 -0.44673407
-0.48469803 -0.52330846 0.26482195 0.26620722 0.34855777 0.2921549 -0.3267872 -0.51186645
0.37829065 -0.49178764 -0.45145065 -0.31591392 -0.062688276 -0.070569016 -0.45749858 -0.42705348
-0.30972606 -0.5057016 0.010218809 -0.39220008 0.17401499 0.324625 0.32387838 0.27416646
-0.35877055 -0.24564907 0.17024772 -0.01915494 0.16709197 -0.41504785 -0.38069788 0.19298176
-0.44390023 -0.49522 -0.38048688 0.0002596246 -0.48862684 -0.050879106 -0.25439382 -0.34762746
-0.25644723 0.06383707 -0.39591664 -0.042602737 -0.34915966 -0.36167234 -0.39003265 -0.28622952
-0.4470716 0.19746472 -0.43896228 -0.34371468 0.1694053 -0.109565146 0.13197494 0.041102655
-0.14814332 -0.34415016 0.07802849 -0.44430026 -0.42492002 -0.37205285 -0.48292774 -0.39838928
-0.4272741 -0.48522428 -0.37330186 -0.15796024 -0.4155209 -0.50042725 -0.43939745 -0.49620324
0.16112012 0.12915246 -0.42370808 -0.4733533 -0.43733063 -0.40921864 0.16566929 -0.29666334
-0.10620472 -0.024285115 -0.0015914544 0.067673154 -0.13430443 -0.03232387 0.15167536 -0.16304426
0.079337575 0.093701325 0.14672853 0.22329432 0.18724415 -0.013925259 0.1288619 0.041678496
-0.33155727 0.1662932 -0.19247706 0.14172038 -0.31790283 0.09107751 0.17230307 0.06907835
-0.29965943 0.036453705 0.06646255 -0.06540152 -0.26345974 0.040825352 -0.042218328 -0.19806999
-0.16234854 -0.30093732 -0.26390257 0.037750226 0.014817619 0.002718472 0.01676509 0.0032808795
-0.041961126 0.031847484 -0.000888582 0.06421331 -0.008006831 0.020628016 -0.04143585 -0.076846585
-0.31205896 -0.3110181 -0.26947615 -0.1639447 -0.34986484 -0.21147257 -0.18282 -0.22585967

linear.0.bias f4 [24]
00000000: 8910 c9be 954a 09be d89a 08bf 1c79 03be
00000010: 1e14 c6bd 5d06 b8bd ef5d 9abe b536 0fbe
00000020: f6eb 09be 98b4 0dbe 174f 6abe d5ee 0ebc
00000030: fa19 95bd c075 08be 3297 d8be b1cc b13c
00000040: bd98 2dbe 9fa1 2ebe d63c 19be cb7b 10be
00000050: 671c 12be a3b5 7dbe 2023 3abd 408b a3bd
-0.39270428 -0.13407357 -0.5336127 -0.12839168 -0.09671806 -0.08985589 -0.3014979 -0.13985713
-0.13468918 -0.13838422 -0.22881733 -0.008723934 -0.07280345 -0.13326168 -0.42302853 0.02170405
-0.16952796 -0.17053841 -0.14964613 -0.14109723 -0.14268647 -0.2477632 -0.045443654 -0.07985544
